385.pth (torch, 315707 bytes, 14 tensors)

conv1.bias f4 [128]
00000000: 159d 7dbc 4f76 72bc d0ff 54bc ef1b 043e
00000010: aa7e b73d 9b2c e93c 51e1 873b 5305 0dbd
00000020: 3c95 2a3c 4e1a 9134 aad8 4abd 4953 30bd
00000030: ace9 f2ba 5539 a5bc 3a3d 523a f0b8 8f3d
00000040: 27a2 723d fe24 2f3c d311 2c3d 0b9d 22bc
00000050: efe6 8539 3f72 c83b f9e7 6e3b 3a64 0f3d
00000060: 11b4 1cbc cccd af3d 9729 d9bc bda5 ffbd
00000070: 9ee1 0fbd d5c4 4b3d 921a e6bc 66cb d8bb
00000080: a754 6a3d bc90 7cbd 16f8 c63d 5874 a3bc
00000090: fb5b f13c 905a 62bc 4a0f 3f3c 32e1 ae3d
000000a0: d4d5 4d38 24cc 8f3c 2962 a13d 4b6a d63d
000000b0: 13b2 2134 8e0b 58bd 587f 4d3d 657e e43c
000000c0: ab06 2cbc a244 13bd 76c7 17bc 5ff1 553d
000000d0: 0662 573d c9b6 59bd c8ec 133d a29f 83bd
000000e0: 2970 823d d418 3a3d 073b 98bd 22aa 9f3c
000000f0: 2f2d 04ba db3e f5bc b22e 243e 510a f73c
00000100: 88fe 41bc 0ea3 59bc b336 06bb 93d2 f1bc
00000110: 08e6 0bbc a6ee 273c 4994 e63d 2a37 00b9
00000120: 1eaa 66bd 7b4d 343b 51e5 343c 6049 4f3d
00000130: b5c2 fa2f f9e0 78b8 5762 263d 6e8b 003d
00000140: ef0a af3c 1f44 c7bc 680f 6e3c de8f fe3d
00000150: a932 803c 2283 00bc 7481 9ebd a723 65bd
00000160: 8eb2 bcbc 8938 babd 2e07 c83d 561d 553c
00000170: d091 ca3c 1db2 373e e243 bebb cfa7 073b
00000180: 0039 61bc 6e38 6e3d 2f2d 45bd e2ca d63c
00000190: 410c 91bc 6658 ceb7 dda2 8c3d 790f 78bd
000001a0: ca7b 653d c615 acbd ab60 2039 2886 b33d
000001b0: 7854 26bc 8f99 803c a4d4 663d b21d 8cbd
000001c0: 7bf3 b93d 137d c2bb cb5d d93c 4a2a ad3d
000001d0: 09e8 1138 7a81 1b3d 8ff2 a03d 8dda 92bb
000001e0: 4e71 c83d 7dde f2bc 10ab 7b3d 2216 b738
000001f0: 4dfc 84bc 4122 43bc e085 7ebd 10ad 1c3a
-0.015479346 -0.014798715 -0.013000444 0.12901281 0.08959706 0.028463652 0.004146733 -0.034428906
0.010411557 2.7027494e-07 -0.049523033 -0.043048177 -0.0018532774 -0.02016894 0.0008019988 0.07017696
0.05923667 0.010689972 0.042009186 -0.009925137 0.00025539796 0.006117135 0.0036454184 0.035007693
-0.009564416 0.085841745 -0.02650909 -0.12482784 -0.035127275 0.04974826 -0.028088842 -0.006616044
0.057209637 -0.061661467 0.097152874 -0.019952938 0.029462805 -0.013815537 0.01166136 0.08539046
4.907495e-05 0.017553397 0.07880051 0.104694925 1.5059076e-07 -0.052745394 0.050170273 0.0278923
-0.010499637 -0.035954125 -0.009263864 0.052232143 0.052583717 -0.053152833 0.036114484 -0.06426932
0.06369049 0.045433834 -0.074331336 0.019490305 -0.0005042133 -0.029937198 0.16033438 0.030156286
-0.01184047 -0.013283504 -0.002047938 -0.029519355 -0.00853873 0.010249769 0.11258752 -0.00012227581
-0.05631458 0.0027512002 0.011041001 0.050607085 4.5613083e-10 -5.933733e-05 0.040621128 0.03138297
0.021367518 -0.024324475 0.01453004 0.12429784 0.015649157 -0.0078437645 -0.07739535 -0.055942204
-0.02303436 -0.090928145 0.097669944 0.0130074825 0.024727732 0.17939039 -0.005806432 0.0020699387
-0.0137465 0.058159284 -0.048138794 0.026219789 -0.017706038 -2.4598277e-05 0.06867001 -0.06056163
0.056026258 -0.084025905 0.000152948 0.08765823 -0.010151975 0.015698222 0.056355134 -0.068416014
0.09079643 -0.00593532 0.026533982 0.084553316 3.4786794e-05 0.037965275 0.078587644 -0.0044816197
0.09787236 -0.029647106 0.061442435 8.7302426e-05 -0.016233588 -0.011910022 -0.062139392 0.0005976716

conv1.lin.weight f4 [128, 21]
00000000: 2ade f9bd 60fe c5bc 9835 84bb 6b43 43bc
00000010: eb10 54bc d3cc 88bb 8fb1 4dbc 246d e6bb
00000020: f78a 93bc 31fe 3cbc 43a7 1dbc 3d1b eebb
00000030: 4994 9f3b e458 b0bb 2f27 49bc 411d 58bc
00000040: e0c2 09bc 79ac 4bbc b4ea aabb 3816 a13a
00000050: 6145 25b8 7fa6 63bc 1568 92bc 64f5 10be
00000060: c621 053e 1b9f ab3c b0e5 393d 97e9 163e
00000070: 0667 adbc f98a 6a3d 7919 15be eb51 23be
00000080: dd5a 3a3e 746c b33d 00b5 f73c c6e7 9e3d
00000090: 38ec 40bd 6183 0e3e a78c 043e 878b debd
000000a0: eb78 393e e37a b63d 1aa4 30bd 7297 d33d
000000b0: 738b fb3c cbbe 38be 3889 053e 6bf4 3e3e
000000c0: 3077 82bb 763f 0abe 8560 fbbc 9033 963c
000000d0: 635f 25be 45d6 91bc 4bb7 41be 3dc8 4dbd
000000e0: 14a7 de3d 7337 eb3d 16b4 d7bc 7f63 313e
000000f0: 83d9 8fbd f1be 073e f26d 513e 6b04 76bd
00000100: 2f0c 2c3d f1c2 61bd 0c06 ad38 4b59 3cbb
00000110: 5693 1fbe db85 6abc 334a b1ba e73f aab8
00000120: ba6f 0c3b f3c7 ddbc 191d b8ba 551f a8b9
00000130: 4a3a 02bd a233 03ba 3486 5ebc e5b3 a3bb
00000140: 7695 a839 36a0 6cbd d2df 643e 710c 0b2f
00000150: d635 b43d 11e9 2b3d 7539 0ebd 563f 53bd
00000160: b4a0 123d 9a70 063c 9047 913d c7c5 de3c
00000170: 045e 65ba e786 0e3d 24bc a73d 4276 40bb
00000180: 2cc9 8d3b 12dc 7b3d 26ad 853c 070d b63d
00000190: 981b db3c 00df beb9 8d49 ef3d 3fc1 e9ba
000001a0: c350 cdbb 6e83 53be ffa6 2abe ba6a 0abe
000001b0: c24b 5cbe 65ea 553d 10bd 3c3e 13c7 273e
000001c0: be23 bf3c a0c2 28bc b76e 763d abe5 b3bd
000001d0: 0c72 04bd 61e0 07be d5a7 593e cae0 363e
000001e0: 14d9 ce3d 58ef 57be 69a3 8bbd f418 84bc
000001f0: 2fee 2bbe 0396 3d3e a29c 12be 8062 303e
00000200: 5118 4a3e 47a9 8abe 0516 ad3d bdf3 9bbd
00000210: d84d 47be d1a3 953c 1a00 a33c 356d 2a3e
00000220: ae19 16be 57df 4abe a117 bdbc fe6e 67be
00000230: 03bc 3f3e aa8a c73b 66ab 61bd 8a8c 983c
00000240: 31d1 3a3d eb37 e43d 5ed7 d2bd 1bd4 283d
00000250: f594 05be bb0c 9bbd a137 97bd 739d 243e
00000260: 3c54 193e 0ce0 1cbe c1f0 92bd 6b16 093e
00000270: f97a 88bd 3bd0 2b3d bf05 e63c 4acf 1b3e
00000280: 1eb0 15be 329d 273c 4e33 e6bc e9bf a23d
00000290: 0c85 ef3c 949e 87bd 3869 e3bd 998d e5bc
000002a0: 8523 b43d efb8 31bd cf91 bb3d fcde 283e
000002b0: 3926 fa3d 365f 9c3c 3742 ee3c 2a21 203e
000002c0: 6784 4ebe 6e68 1ebd fcf4 dd3d 9288 7b3d
000002d0: c1fc 4f3e 92ee b73d 0586 40be 711d 81bd
000002e0: 5a92 33bd 8c84 cdbd 9a4f 0e3c 61dc b33d
000002f0: 7a17 73be 6207 08bd 5a92 09ba 143a 3cbc
00000300: 43d8 923a 296a afba a33d 85bc 3458 8a3a
00000310: b7cb 47ba 0a20 94ba 4d40 b7b8 01ed efbb
00000320: 829e f4ba e5c8 e5ba 43a3 be3a 176f 423b
00000330: 58fa 05bb 3381 0cbb 5099 b73b 00f2 28ba
00000340: 31bf 0fb8 b10c 45b7 a21f 4cbe d562 fe3d
00000350: 1e43 b73d 283f 853d 8e36 cf3b 8954 8dbd
00000360: 6f07 dabc b4b1 573b 527f 4a3c 15ee 35bd
00000370: c831 1f3d 9f6d 013c fa55 163c 4f54 efbc
00000380: 7463 08bc 3ea1 23bd 156c 093b fb5c b33c
00000390: 2bdc 4abd 7e7a c1bc edb9 8a3a 7f7d c33d
000003a0: b18d bc3d 951e 1a3e 2c09 81bd ad94 22be
000003b0: be25 293e 01c6 063d 1e72 f93d 0644 333e
000003c0: de02 953c 88ea fc3d 7671 babd a67d 333d
000003d0: 6eb1 b13d 07c7 673d f44a 35be d39f fc3d
000003e0: acea cebc 7f87 ffbd b686 9b3d babd b8be
000003f0: e57e c6b9 8c68 31bc 91b6 2bbc a3b8 ad39
-0.122005776 -0.024169147 -0.004034709 -0.011917929 -0.012943487 -0.0041748076 -0.01255454 -0.0070320535
-0.0180106 -0.011535213 -0.009622398 -0.0072664306 0.004869972 -0.0053816903 -0.0122774085 -0.013190568
-0.008408278 -0.012431257 -0.005215967 0.0012289947 -3.940368e-05 -0.013894676 -0.017871896 -0.14156109
0.13001165 0.02094989 0.045385063 0.14737545 -0.02116729 0.05726144 -0.14560498 -0.15949218
0.18198724 0.0876092 0.030237675 0.07759051 -0.047100276 0.13917305 0.1294428 -0.108664565
0.18112533 0.089101575 -0.04312525 0.1033162 0.030706143 -0.18041532 0.13040626 0.18647926
-0.0039814934 -0.13500771 -0.030685673 0.018335134 -0.16149668 -0.017802367 -0.18917577 -0.05023979
0.108717114 0.114851855 -0.026330989 0.17323111 -0.07023909 0.13256432 0.20452097 -0.060062807
0.042003807 -0.05511755 8.250409e-05 -0.0028739746 -0.15583548 -0.01431414 -0.0013526141 -8.1181344e-05
0.00214289 -0.027072882 -0.0014046758 -0.000320668 -0.03179387 -0.00050049473 -0.013581801 -0.0049958103
0.00032154814 -0.057769977 0.22351006 1.2646396e-10 0.08799331 0.041970316 -0.034722764 -0.051574074
0.03579779 0.008205557 0.070937276 0.027193917 -0.0008749666 0.03479662 0.08190182 -0.0029367362
0.00432696 0.061489172 0.016317915 0.088892035 0.026746556 -0.00036405772 0.116839506 -0.0017834081
-0.006265731 -0.20655605 -0.16665266 -0.13517275 -0.21513274 0.05222549 0.18431497 0.16384535
0.023332473 -0.0103003085 0.06016418 -0.0878404 -0.032335326 -0.13269188 0.21255429 0.17859188
0.10099998 -0.21087396 -0.068182774 -0.01612518 -0.16790079 0.18514256 -0.14317563 0.17225075
0.19735838 -0.27082273 0.084514655 -0.07614849 -0.19463289 0.01826659 0.01989751 0.16643222
-0.14658234 -0.1981176 -0.023082556 -0.22600934 0.18724065 0.006089528 -0.0550951 0.018621702
0.045609657 0.11143478 -0.10294984 0.041217905 -0.13045104 -0.075707875 -0.07383657 0.16075687
0.14973539 -0.15319842 -0.071748264 0.13387458 -0.0666408 0.04194663 0.028078912 0.15215793
-0.14617965 0.010230349 -0.028100636 0.0794676 0.029238246 -0.06622043 -0.11104053 -0.02802162
0.08795837 -0.043389257 0.0915867 0.16491312 0.12214322 0.019088369 0.029084308 0.15637651
-0.20167695 -0.03867381 0.10837743 0.06140954 0.20311262 0.089810506 -0.18801124 -0.06304444
-0.043840744 -0.10035047 0.008685971 0.08782268 -0.23739424 -0.033210166 -0.00052479433 -0.011488456
0.0011203367 -0.0013383079 -0.016264742 0.0010554851 -0.00076216034 -0.0011301052 -8.738097e-05 -0.0073219542
-0.0018662962 -0.0017531185 0.0014544505 0.0029668265 -0.0020443406 -0.0021439313 0.005602993 -0.0006444752
-3.4271918e-05 -1.174507e-05 -0.19933942 0.124211945 0.089483485 0.06506187 0.006323642 -0.069008894
-0.026614873 0.0032912316 0.012359457 -0.044416506 0.038865834 0.007899671 0.009175772 -0.029215006
-0.008324493 -0.039948694 0.0020968963 0.021894922 -0.049526375 -0.02361798 0.0010583975 0.09545421
0.09206713 0.15050729 -0.063005775 -0.15877028 0.16518304 0.032903675 0.12179969 0.17506418
0.018189844 0.12349421 -0.09103672 0.043821 0.0867642 0.05658629 -0.17704374 0.123351716
-0.025258385 -0.12477016 0.075940534 -0.3608225 -0.00037860047 -0.010828149 -0.010480539 0.00033134696

conv2.weight f4 [128, 128]
00000000: 5e63 a439 8514 d03b 227e 973a 6fd6 b0bb
00000010: 8f16 a9ba 9d07 3b35 6132 12bb 4df6 873b
00000020: 80c9 2739 0e3b deba dbd0 d43b 1c64 80bb
00000030: a3fd 9dbc 7654 e0b3 13b5 d43a 6150 2faf
00000040: ed25 1334 6288 ceb8 3767 3c3b a2c8 153b
00000050: 3348 9cba 2658 baba 6657 e7ba 919f 3737
00000060: 9af0 86bc 201c 13b2 868d b53a 09b9 e939
00000070: b296 073c 53c4 6a3b 4c37 9bb9 e7f5 4abb
00000080: 2651 31ba 63a8 e53a 98fb 90b9 77e1 94bb
00000090: 4fd9 bfb8 1375 4bba 6b26 812e b3b4 56b9
000000a0: a11a e9b9 46ab 443b f9ac 50ba 5098 77bc
000000b0: 48ec 7fba 4920 963b cf64 d7bb 19db 59bc
000000c0: 7516 70b4 22ce 5639 2763 dd35 2982 033c
000000d0: b931 26b9 147a 22bc b8a0 ffb7 afdd 81b5
000000e0: 0bd9 a73a 8515 923b c239 d83b e09b f1ba
000000f0: d40c 943c c403 053c e907 5d38 a6af 8238
00000100: da87 98bb 7b83 1bbb 8672 983a 06ad f2b3
00000110: 0b72 4cba 5757 4fb6 9d5b 43b1 7018 8f3b
00000120: d123 9ebb 53c1 ac3a 2b07 25ba 8bc0 b7ba
00000130: b8d4 d938 bd4d 5a3b 397d 0abc 1558 08bb
00000140: 933a b339 6c7e 0eba 1331 9e3a e4ad 4fb4
00000150: 77fa 6bbb ea6f e73b 606b 853b 9a1a df39
00000160: 605d fcba 5d32 2338 814a 4cbb afcc 16bb
00000170: 9dad 023b 0984 c53a 4a01 54bb aa97 3c38
00000180: 8688 bdbb 9921 573b 3bf0 073c c370 afb9
00000190: 3673 3836 e979 46bc 009d 2cbb 5f8e 103c
000001a0: c91d 6633 28ee e839 116e 943b f9ef a9bb
000001b0: 4158 71ba f0e9 853a 39ae 9335 2ca3 c83a
000001c0: 5f40 e7b9 01a1 15bb 7cf6 2dba 91f5 be3b
000001d0: 5c65 2ebb c342 043c 65aa 32b8 6bd5 c7b9
000001e0: ece2 72bb 2894 b83a a1bd c33a 9f51 883b
000001f0: 5d01 95ba c22f 4d3b f27e 3e39 4d22 2bb9
00000200: 95dd c4bc d607 b93d 11fa 0a3d 2dd5 f1bd
00000210: 4412 2bbd e98c 07bb 54bf 2c3d 0148 133d
00000220: 6c9a 6cb7 6947 3fbc a4b7 dabd e0f3 ad3c
00000230: 7177 35be b89d 83b2 40d9 db3d f66b 9ab8
00000240: da12 ad37 b001 d93a e203 703b 1fec 82bd
00000250: 25a5 8a3c a3d5 aebd d52a 5fbd 06ae f434
00000260: 2210 c73d 6015 10bc 53d6 083d 6cfc 2aba
00000270: 7d92 5d3d 9311 45be 2a05 573d 0c86 bfbd
00000280: 0938 3b39 80ce a1ba 9d4a 803d 0c7c bebd
00000290: 54a3 8136 f840 ac3d fb40 8bba 4452 d3bd
000002a0: 4f01 60bc 8961 cabd 5cd9 fdbb bd44 e93c
000002b0: 5c2d 90bd 987a 3a3a c295 0f3d cd5b 8bbd
000002c0: 1a21 adbb c353 a937 aa10 1b37 9b58 443e
000002d0: 1710 d13b fa00 17be b0cf 983a 2f48 c534
000002e0: 87a9 653c 0e37 a0bc d889 a3bc 8ce7 be3c
000002f0: fa98 553d 34a8 dd3d d51a 08af 6302 febd
00000300: 8895 00be b58b b6bd 32ad 403b c90c 0e3a
00000310: 9814 d43d db1b 8eba 58ac ff36 0c19 953c
00000320: 9521 143d 5edb 41bb f5f6 bcb9 28cc 543b
00000330: 150c 1ebe 987d 423e 302d edbd c704 0dbd
00000340: 4bb0 41b4 7e9a 19ba ddcd 9e3d 6588 b83a
00000350: 9c38 15be 477f 163e 6f8e b63d b73d 313b
00000360: e341 313e 7e40 a63b d0b4 fa3d 1ee5 6abe
00000370: 43cc 9c3d 2caf 80bc c8a5 a93d c8cb c1ba
00000380: 5a08 a83c 38ca e53d 8d9c cfbb 657f 4b3c
00000390: de28 7bbb 40e3 013e cc17 b9bc 9a4d 64bd
000003a0: 4ec1 c4bb 144c 88bd d6fb 67bd 2e63 433d
000003b0: ca50 debd 6224 f43d 87b6 03b9 39a3 1839
000003c0: 145d 15bb 3994 d8bd 1ae7 57bc bd7e bcba
000003d0: 59f1 593e 50b0 913d 835d 81bb 6c68 e5b8
000003e0: 9b61 833d 9d60 cbbb 787d 5fbc c9b7 02bc
000003f0: 6d4b 58bd 0be5 1c3e 2b60 6a3d 78b1 333d
0.00031354552 0.0063501024 0.0011557976 -0.005396656 -0.00129004 6.967401e-07 -0.002230786 0.0041492344
0.00016001426 -0.0016954856 0.006494624 -0.003918184 -0.019285982 -1.0446176e-07 0.0016228281 -1.5944714e-10
1.3704239e-07 -9.848249e-05 0.0028748044 0.0022855182 -0.0011923373 -0.0014216944 -0.0017649948 1.0944802e-05
-0.01647215 -8.562921e-09 0.0013851381 0.00044579085 0.008275675 0.0035822585 -0.00029605103 -0.0030969323
-0.0006764106 0.0017521497 -0.00027653272 -0.004543479 -9.1480666e-05 -0.0007761281 5.873065e-11 -0.00020475946
-0.00044461063 0.0030009313 -0.0007960345 -0.015111998 -0.00097626867 0.0045814854 -0.0065732966 -0.013296866
-2.2359912e-07 0.00020485421 1.649464e-06 0.008026638 -0.00015849517 -0.009916801 -3.047321e-05 -9.675767e-07
0.0012805773 0.0044581317 0.006598682 -0.0018433295 0.018072523 0.008118574 5.2697873e-05 6.2316e-05
-0.0046548666 -0.0023729492 0.001163081 -1.1300476e-07 -0.0007798976 -3.0896242e-06 -2.842831e-09 0.004366927
-0.004826047 0.0013180174 -0.00062953186 -0.0014019174 0.00010386988 0.0033310496 -0.008452707 -0.0020804454
0.00034185182 -0.00054357084 0.0012069069 -1.9341638e-07 -0.0036007443 0.0070629017 0.004071638 0.00042553694
-0.0019253902 3.8909133e-05 -0.0031172337 -0.0023010185 0.0019939907 0.0015069257 -0.00323494 4.496394e-05
-0.005784097 0.0032826422 0.0082970215 -0.00033462615 2.7485198e-06 -0.012114027 -0.0026338696 0.008823006
5.3578137e-08 0.00044427929 0.0045297225 -0.0051860777 -0.0009206571 0.0010216814 1.1003059e-06 0.0015307418
-0.00044107714 -0.0022831562 -0.00066361553 0.0058276136 -0.0026610708 0.008072558 -4.25972e-05 -0.00038115247
-0.0037061526 0.001408224 0.0014933833 0.0041601206 -0.0011368204 0.0031308983 0.00018167103 -0.00016320609
-0.02403144 0.09034698 0.03392989 -0.11808238 -0.041765466 -0.0020683354 0.042174652 0.03595734
-1.410265e-05 -0.01167474 -0.10679558 0.021234453 -0.17721345 -1.532213e-08 0.107347965 -7.3634015e-05
2.0631986e-05 0.0016556289 0.0036623408 -0.06392693 0.01692445 -0.08536842 -0.054484207 4.557516e-07
0.09719874 -0.008794159 0.03340752 -0.0006522599 0.05409478 -0.19244985 0.05249516 -0.09351739
0.00017854584 -0.0012344867 0.06264231 -0.09301004 3.8635135e-06 0.08410829 -0.0010624224 -0.10318425
-0.013672187 -0.098818846 -0.0077468585 0.02847516 -0.070399016 0.0007113605 0.03505493 -0.06804619
-0.005283487 2.0185375e-05 9.2426e-06 0.19174425 0.006380092 -0.14746466 0.0011658575 3.674663e-07
0.014017469 -0.019557502 -0.01996319 0.02330377 0.052147843 0.10823098 -1.237866e-10 -0.12402799
-0.12557042 -0.08913366 0.0029400107 0.0005418775 0.103554904 -0.0010842042 7.6196557e-06 0.01820042
0.03616484 -0.0029580216 -0.00036042152 0.003247032 -0.15434296 0.18993223 -0.115808845 -0.034428384
-1.803866e-07 -0.0005859508 0.07754109 0.0014078735 -0.14572376 0.1469699 0.08913886 0.0027044842
0.1731029 0.005073606 0.122415185 -0.22938964 0.07656147 -0.015708528 0.082835734 -0.0014785463
0.020511795 0.11220211 -0.006335801 0.01242051 -0.003832392 0.12684345 -0.022594355 -0.05573807
-0.006004489 -0.06655136 -0.056636654 0.047702007 -0.10855253 0.11921002 -0.0001256113 0.00014556655
-0.0022791075 -0.10575146 -0.0131776575 -0.0014381033 0.21283473 0.07113707 -0.003947915 -0.00010939021
0.06415101 -0.0062065856 -0.013640754 -0.007978388 -0.052806307 0.15321748 0.05722062 0.04387042

conv2.bias f4 [128]
00000000: 157f 33ba 48e5 82bd 8f64 bcbc 60e0 033e
00000010: e749 76bd 1e73 5cba 0f0d aa39 c932 31bb
00000020: 1522 12ba 6319 1c3e e5d4 85bd ac58 ef3c
00000030: 0f55 56bd 0000 0000 163f a8bd 0000 0000
00000040: cb6c 7bba fd35 623e 4780 c8bc 0687 2fba
00000050: 2ee8 873d 18b2 b8b9 eff1 8fbc 5d3f 30b8
00000060: 77f2 dd3d f050 873e 7c0f dbbc 73a0 923e
00000070: 1c79 003d a273 4dbd 8d08 2a3c 2e9e d73a
00000080: 065b 913e f876 0f3e 546b 6b3e 7ecd 023b
00000090: cd79 d0b9 f112 243d ddd2 74bb 51ce e23c
000000a0: b324 7b3b fc40 0dbd 6c4b b13e bd9d a73d
000000b0: 74e6 edba c92e 073e b6d7 00bd d673 2f3d
000000c0: 6b83 ab3d 1740 11b9 0203 893d 5a9b 02ba
000000d0: 71e2 9eb8 1c42 553d 5292 593e f39a 50b9
000000e0: ec14 a13e 860f afbc db5e bc3c 6aec bc3b
000000f0: 83bb 353e 9e46 d3bd 0000 0000 62e2 9639
00000100: 3ed8 893d 0d01 e7bc c9ee 6c3e dd43 383e
00000110: f9d7 1abc 946a a13e 3ecc 35bc 0586 f93c
00000120: 5130 85bb 06fa 393e 89e4 593e e47b b6ba
00000130: 431b 2fbd 13c0 893d dff6 003c bfea 91bb
00000140: 03fd a4b9 ec03 2ebc c589 97bc ad23 813e
00000150: 5a2b 41bc 37e5 27bc 30d6 b23c 72ad 423b
00000160: 8d98 b03b 4e3d 253e 5264 87bb f418 d8bb
00000170: f931 a03c 5497 84bc 3bff debc 8516 883d
00000180: 4683 e13d 8911 1b3b 603f c63b 55bc d63d
00000190: 01f9 5b3e d1bc f43c 4e62 73bc 8432 1bbb
000001a0: 15f6 133e 5e68 4bbd 31ee 99bd 225a 06bc
000001b0: a33e 62bd 8f4e a4bb 975b 133a 3eba 2a3c
000001c0: b201 ffb9 9a84 ba3c 2ba1 8c3e 5780 863e
000001d0: 2842 6cbd 886d 26bd b561 68bb 923f aeb9
000001e0: 0c43 d4bc de10 76bd 7a0c 013e 91af 4dbd
000001f0: 2f60 9cbc b3b6 de3c 4fac f73c 88bf b5bc
-0.0006847245 -0.06391388 -0.022997169 0.12878561 -0.060129073 -0.0008409488 0.00032434656 -0.0027038327
-0.00055745366 0.1524406 -0.06534747 0.029217087 -0.052327212 0.0 -0.08215158 0.0
-0.00095911016 0.22090907 -0.02447523 -0.000669584 0.06636082 -0.00035227905 -0.017571418 -4.202068e-05
0.10837262 0.26428938 -0.026740782 0.28638038 0.0313655 -0.050159104 0.010378015 0.001645034
0.28389758 0.14010227 0.22990161 0.0019958909 -0.000397636 0.040057126 -0.003735713 0.02768627
0.0038321435 -0.034485802 0.34627855 0.08184383 -0.0018150345 0.13201441 -0.031455718 0.04283508
0.08374675 -0.00013852153 0.06690027 -0.00049822556 -7.576205e-05 0.052065 0.21247223 -0.00019894149
0.31461275 -0.021369707 0.02299445 0.0057654874 0.17747311 -0.103162035 0.0 0.00028778898
0.06730698 -0.028198743 0.23137964 0.17994638 -0.009450906 0.31526625 -0.011096058 0.030459413
-0.0040645977 0.18161783 0.21278585 -0.001392242 -0.04275061 0.067260884 0.007871359 -0.0044530327
-0.00031469026 -0.010621052 -0.01849831 0.2522253 -0.011790121 -0.01024752 0.021830648 0.0029705432
0.005389279 0.16136667 -0.004131832 -0.0065947715 0.019555079 -0.01618544 -0.027221313 0.0664492
0.110113665 0.0023661575 0.0060500354 0.1048514 0.21481706 0.02987519 -0.014854981 -0.0023681233
0.14449342 -0.04966008 -0.075161345 -0.0082002 -0.055235516 -0.0050142477 0.0005621253 0.01042038
-0.00048638653 0.022768307 0.2746671 0.2626979 -0.05768028 -0.0406318 -0.0035458629 -0.0003323523
-0.025910877 -0.06007468 0.12602416 -0.05021626 -0.019088833 0.027186727 0.03023353 -0.022186056

conv3.weight f4 [128, 128]
00000000: 011e 43bc 0cd8 f6bc e103 c33d 41e5 6cb8
00000010: 3095 223d 7255 afb0 000f 91bb e7d6 4d2f
00000020: 99f5 0dbd c22c a93c 0122 dfba 91ac 333c
00000030: b3c7 c93d 420b cf3d 866e 30bc 0ddc 70ae
00000040: f6f6 debd 37ac 393b 67f8 be3d e560 abba
00000050: 4930 25bc 314f 39ba a5e0 b8bd 7e82 c7bd
00000060: 644a 573c 6e2f 2e3d ec02 eab5 0dc1 05b8
00000070: 8e05 de37 ca40 c6bb 4ac6 573d b7aa b63b
00000080: 49bc 2438 2a02 e03c 2f96 a03c 0462 5a3c
00000090: a03e 4bbd 2817 1fb9 0be1 69bb 193a 82ba
000000a0: 78f8 6db8 b0b2 063d 50b9 b8b9 a648 633a
000000b0: 7bad 5b3d db6f 9db7 56b2 3bbd 9dba 293d
000000c0: dbda e1bb b54a 943c 0d98 d1bd c183 8fbb
000000d0: c88a dabc 7ffc 87b9 ace7 3cbd 2e50 72bc
000000e0: be81 c7bb 12f5 d2bd e91c 053a 5a44 ab36
000000f0: 89a8 4e3a da5b 7e3d 912f 01be f5f9 293b
00000100: 841f e6bd b23f 14b9 a28a f7bd 43a4 20bd
00000110: 2c8e 4fbc 0fa1 11bc a582 8db6 0a2c 593d
00000120: 974b e9bd efa9 a639 9c85 22bd f251 05be
00000130: 4057 65af f4b6 8f3d 8991 aabc 23ca 5dba
00000140: bf05 8e3d 7717 103d 5082 33bd 7052 403c
00000150: ff6f 09b7 dcec dd3d 305f bd36 880b 923d
00000160: fdd5 1eae caac 3dbc feb0 a13d ce9d 9db0
00000170: 8ca7 893c c34c 563c 6360 123d 2b3a 90bc
00000180: 5c38 c33c 71bc 982d 1672 143d b93e a3bb
00000190: fc85 03bb 338c 28bc 9452 f2b9 1d67 8ead
000001a0: 897c 1abb d3e4 2a2e 9de0 dd39 2f63 883d
000001b0: 6a57 2434 296a 8231 b29b d6b9 be68 fb36
000001c0: bd46 61b2 92a6 cabd 972e b0bc b5ee dc36
000001d0: ccf5 93bd cac6 30b8 f2a5 7d3d 7a8e 8e3d
000001e0: 239a db3c ddc1 a5bd 7f68 95bc 2eb5 83bd
000001f0: daf8 7cbc bb70 6939 6c59 62b5 d0c9 84b1
00000200: d4f7 25bc 1a69 a23d a266 ecbd a76b 48bc
00000210: 18bd b33c 1378 a0b6 c7aa 7a3a 143d c6b9
00000220: bbbe d0bd f65d d8bb e7d2 fcbb c26f 34bb
00000230: 689c ae3d dfca a13b 90db b03d d849 98ba
00000240: 07db 6e3d f7d7 bb3d 537c 043e 5d51 7bbc
00000250: cf20 9d3c a46d 69bb c67c 803d c7a9 a43d
00000260: 8d85 83bc 78bb 063e e3e8 6fb8 f1fe a4ba
00000270: 0892 5ebd 58a0 7f3d 3a0c 87bd 1887 363d
00000280: 4aac 3dbc b9de a9bd 29ca c0bd a1ed c83d
00000290: 74de f3bb f07e 15b9 3724 dc3d 6905 42bd
000002a0: 5cef 13bc bf9d 00be ac0f afbb bdf6 5dbd
000002b0: e2ee 1a3c 2ea2 38af 38f9 0e3e da8c e6bd
000002c0: 459a 053c 5cfa 08bc a3eb 22bd 894b b0bb
000002d0: 6356 c1bd e126 573b a2f5 1e3e 8c70 5ebc
000002e0: 8ef8 683c 37a8 0c3e 99f1 1eb6 664c 85bb
000002f0: ab66 87bc a737 f73d 5195 87bc bfb7 e4bd
00000300: 6bb9 193c a348 8ab6 60c7 0dbe 7dd0 d93d
00000310: 8c2d bfbd ce81 f6bd 7551 743a 1c94 8b3d
00000320: c0dc 01be ae5a cf2f 489e 85bd f424 e73d
00000330: 5de5 4633 8847 843d c92b b0bd dec8 f63b
00000340: ff89 f83d 24ae c9bc 9d7c 003e 4d01 9f3d
00000350: b2af 78bd 48ea 09be e2e9 4d39 b201 bcbd
00000360: dcc6 23bb d3d8 eabb 5368 87bc 17ec eebb
00000370: 4241 813b f7c3 15be 4229 d9bc 6fcc 75bd
00000380: 7db6 843d 896d 1fba 2363 0dbc 0930 cc39
00000390: e927 ffb9 eff0 0a3e 7b5c 8e39 f79b b4ac
000003a0: 0d59 3f3c 8e93 0534 dc18 39bd c020 37bd
000003b0: 7be0 c8b6 5c92 e338 ecaa 12bc 3ef3 59bc
000003c0: 9bd2 09bc b24e 58bd 4d5f a339 36a8 9abc
000003d0: f568 033e 6231 b43a e06a 10be ba71 efbb
000003e0: 969c a53c be3b 083e d98c aabd dab4 b13d
000003f0: e934 0bbe 8d9f f5bb 8b16 49bc d2f4 0034
-0.011909009 -0.030132316 0.09522224 -5.6480294e-05 0.039693058 -1.2757211e-09 -0.004426837 1.872099e-10
-0.03465805 0.020651225 -0.0017023684 0.010966436 0.09852543 0.10109569 -0.010768538 -5.4765126e-11
-0.10886948 0.0028331408 0.09324723 -0.0013075141 -0.010082313 -0.00070689904 -0.090272225 -0.09741686
0.013140295 0.0425257 -1.7435209e-06 -3.1889464e-05 2.6467049e-05 -0.006050204 0.052679338 0.00557455
3.9276e-05 0.027344782 0.019602863 0.013329033 -0.04962027 -0.00015172048 -0.0035687115 -0.0009935527
-5.6736608e-05 0.032885253 -0.00035233283 0.0008670188 0.05363224 -1.8767945e-05 -0.04582437 0.041437734
-0.0068925447 0.01810203 -0.102340795 -0.00437972 -0.026677504 -0.0002593733 -0.046119377 -0.014789624
-0.0060884645 -0.1030065 0.00050778553 5.1041543e-06 0.000788339 0.062099315 -0.12615801 0.002593634
-0.1123648 -0.00014138108 -0.12086989 -0.039219152 -0.012668174 -0.008888497 -4.2173365e-06 0.053020515
-0.11391371 0.00031788598 -0.0396782 -0.13019541 -2.0858426e-10 0.070173174 -0.02082135 -0.00084606017
0.0693469 0.035178628 -0.043825448 0.011738405 -8.1919125e-06 0.10836193 5.64372e-06 0.07131106
-3.61151e-11 -0.011576841 0.07895087 -1.1468104e-09 0.016803525 0.013079825 0.035736453 -0.017605862
0.023830585 1.7364084e-11 0.036241613 -0.0049818424 -0.0020068875 -0.010287332 -0.00046219362 -1.6189322e-11
-0.0023572764 3.885676e-11 0.00042319755 0.06659543 1.5305491e-07 3.795567e-09 -0.00040933263 7.4925765e-06
-1.3112808e-08 -0.09895052 -0.02150659 6.5843e-06 -0.072246164 -4.2146807e-05 0.061925836 0.06960769
0.026806897 -0.08093617 -0.018238304 -0.06431042 -0.01544019 0.00022262607 -8.4321687e-07 -3.864649e-09
-0.010129888 0.07930203 -0.11543013 -0.012232698 0.021940753 -4.78235e-06 0.0009562191 -0.0003781101
-0.10192629 -0.006602998 -0.007715571 -0.0027532433 0.08525926 0.004937514 0.08635628 -0.0011618687
0.05831435 0.091720514 0.12938051 -0.015339223 0.019180683 -0.003561833 0.06273799 0.08040195
-0.016054893 0.13157451 -5.7198933e-05 -0.0012588185 -0.054338485 0.062408775 -0.06594129 0.04456243
-0.011576721 -0.08294434 -0.09413559 0.09810949 -0.00744229 -0.00014257035 0.10749095 -0.04736844
-0.009029236 -0.12560175 -0.0053424444 -0.054190386 0.009456368 -1.679232e-10 0.13962257 -0.11257334
0.0081544565 -0.008360472 -0.039775502 -0.0053800982 -0.09440305 0.003282957 0.15523389 -0.013576638
0.014219416 0.13736044 -2.3684463e-06 -0.0040679453 -0.016528448 0.12071162 -0.016550692 -0.11167859
0.009382586 -4.1211765e-06 -0.13845587 0.10635469 -0.09334859 -0.12036477 0.00093199994 0.06815359
-0.12681866 3.7717512e-10 -0.065243304 0.11286345 4.6309072e-08 0.06458956 -0.08602101 0.0075312695
0.12135696 -0.02461917 0.12547536 0.0776392 -0.06071443 -0.13468277 0.00019637452 -0.09180011
-0.0024990356 -0.0071669607 -0.016529238 -0.0072913277 0.003944547 -0.14625536 -0.026508931 -0.060009416
0.064801194 -0.00060816907 -0.008629593 0.000389457 -0.00048667126 0.13568471 0.00027153254 -5.1332233e-12
0.011678946 1.244027e-07 -0.045189723 -0.044708967 -5.9865974e-06 0.00010851465 -0.008951884 -0.013302622
-0.008412029 -0.052809425 0.00031160787 -0.018879037 0.12833007 0.0013747627 -0.1410327 -0.0073072584
0.020216268 0.1330404 -0.08327646 0.08677073 -0.13594402 -0.0074958266 -0.012273441 1.2009994e-07

conv3.bias f4 [128]
00000000: 0b92 143d ef02 0eba 5b86 a5bb a891 ee3d
00000010: 96b6 cebc e340 88ba be27 bdbc 8c10 53b8
00000020: fd58 b0bc b22a de3d d3c1 2cbb d38d 15bd
00000030: 9a27 2f3d ca01 453d c925 89bc 1aaa dab8
00000040: 7166 3e3d 5a30 f23c 3351 70bc a4a6 9e3c
00000050: 197c 03bc d6bc ce3d 2c37 39bb c6b6 98bc
00000060: 4fa2 163e 594b 313d cfc7 74ba d130 8f3c
00000070: c123 1cbb 7b8f a1b8 20fa 2e3b 5784 acbb
00000080: ba06 523d 3ee1 113d 946d 573c 24a2 bf3b
00000090: 9676 9eb8 9e19 d3ba f99c 113c 1dea 123e
000000a0: e1ec fab9 3c66 c8bc bc08 ba3d 9019 fa3d
000000b0: 19f9 99bc 036e 36b9 ff41 efbc bae1 863c
000000c0: 7234 c03c a41c 53bb c052 61bd 2faf ccbb
000000d0: 48a2 3b3d f9c2 163c 6c86 07bd 3999 80bd
000000e0: 8b36 f5bc 147d 5cbb 0000 0000 ead8 5b3c
000000f0: 3e84 e9bb 186d bfbb fcc4 293d afbd 323c
00000100: d257 4a3c 2882 a1b7 3c28 54bc 3e2f 4a3c
00000110: 83c7 90bc 0ab1 943d 8105 d3b7 cec7 52bb
00000120: 342c f0bb 0000 0000 8171 debb 8f2f 973b
00000130: 0000 0000 e946 5e3c 1b1f fc3c bb6c e73c
00000140: 3c06 d8bc 7726 593d eaff c0bc 7325 a93d
00000150: e937 823d 80da 1ebb 8718 1ebb 3820 01b9
00000160: 1f8e e0ba 9ce1 f63b 4eac 053c 9205 c7ba
00000170: a0a8 393d f558 eb3b b3f4 a4bc c221 643c
00000180: c05e 2dbb e331 dab6 933d 64ba b073 003e
00000190: 4aa3 bf3d 881a 2ebb dcbe 06bb 0764 53ba
000001a0: fb88 66bd 0000 0000 b043 9ebd 6b5d 23bb
000001b0: b0a5 1fba 248c 82ba 9857 d53d 2ac4 053c
000001c0: c3c5 1ab9 6ea5 92bc 90d7 d93c f9a3 4bb9
000001d0: e1ca 8c3b 51a3 08bb 58fe 9d3c 3385 b63c
000001e0: 1218 98ba b620 3439 26f5 2fbc a73a a0bb
000001f0: 4bf9 90bc 9e4b fdbb 613a ba3c 3247 57bb
0.03627209 -0.0005417307 -0.005051417 0.116488755 -0.025233548 -0.0010395314 -0.02309024 -5.032173e-05
-0.021526808 0.10847987 -0.0026360645 -0.036512207 0.042762376 0.04809741 -0.01674165 -0.00010426734
0.046484414 0.029564071 -0.014667797 0.01936657 -0.008025193 0.10094611 -0.0028261645 -0.01864184
0.14710353 0.043284748 -0.0009337635 0.017479332 -0.0023825022 -7.7038036e-05 0.002669938 -0.0052647996
0.051275946 0.0356152 0.013148684 0.005848186 -7.5561155e-05 -0.0016105657 0.008887523 0.1434712
-0.00047860204 -0.024462812 0.09083697 0.12211907 -0.018795537 -0.00017397855 -0.029206274 0.016465057
0.023462508 -0.0032213116 -0.055010557 -0.0062464694 0.04580906 0.009201759 -0.03308718 -0.06279225
-0.029933235 -0.0033643888 0.0 0.013418416 -0.00712636 -0.0058418624 0.041447625 0.010909482
0.01235004 -1.9253304e-05 -0.012949046 0.012340365 -0.01767326 0.0726033 -2.5155723e-05 -0.003216255
-0.007329488 0.0 -0.006788433 0.0046138237 0.0 0.013566711 0.030776551 0.028250089
-0.02637016 0.0530152 -0.02355953 0.08259096 0.0635832 -0.0024239123 -0.0024123506 -0.00012314401
-0.0017132199 0.007534219 0.008158756 -0.0015184155 0.04532683 0.0071822354 -0.020136213 0.013924064
-0.002645418 -6.502714e-06 -0.0008706685 0.12544131 0.09357317 -0.0026566107 -0.0020560538 -0.00080639165
-0.05628298 0.0 -0.07727754 -0.0024927508 -0.0006090058 -0.0009959978 0.10417098 0.008164445
-0.00014760256 -0.017901149 0.026592046 -0.00019420673 0.004296646 -0.0020849297 0.01928632 0.022280311
-0.0011603853 0.00017178323 -0.0107396 -0.0048898044 -0.017696997 -0.0077299615 0.022732915 -0.0032848832

pool1.att f4 [1, 256]
00000000: 5bc3 a7b4 92e4 b8b5 96f1 aeba f987 5cb7
00000010: 664e 843c 0ec2 2a39 36a3 20bd f21b 40b9
00000020: 73df 043a 8c4e eab9 10fa 2e36 8c86 483d
00000030: db16 aa2d 2fdd 3a3d 2cc1 503b 6904 763b
00000040: dad1 143c 0210 1036 e36b d0bc 8674 9039
00000050: f45d 7ab8 7a8f 1cbd 2dc9 5ebd 43f8 ce3b
00000060: 4f09 9839 bbed bf3b fc9b e638 6cff 9f3b
00000070: f90e 08ba 9d02 4e38 a7b6 713a aa43 3e36
00000080: 5b43 9a3b 6f0d e63c 638b 49b7 20a0 deb6
00000090: d4e4 893c 41c5 9abc 4244 6238 745e a13d
000000a0: c073 1b2f e0a4 a73c f8fb 0e3b f607 c03c
000000b0: 32ec cb38 dd9c ebbc 3a06 26b8 30fc 96b8
000000c0: 2f28 353d bdf3 b5b8 813d 273a aa9d 493b
000000d0: 26e2 f13c ee10 f53c e177 2eba 8e98 9eb9
000000e0: 8e46 55bd e8b3 b8b9 3c40 eab9 6a39 f735
000000f0: 6a39 2238 cfb8 2f39 b71b 113d 74e6 d53c
00000100: 7d4c 4eb7 622e 9d3b 9020 913b 0f4b ab39
00000110: 9bea f2bb 315c b23b 49a5 59bd 3ce1 8fb8
00000120: a7ae b9b3 7205 993a 8fa1 2bb9 86db 0931
00000130: 09c5 842f d651 e738 4143 da39 a85b 78b9
00000140: 9e10 b6bc 5a14 d63a c8de 9038 3267 c6bb
00000150: 5ffe c8bb 732e 20b9 23d7 c13c 6a55 a8b9
00000160: 71d0 9cb8 ba0a 2039 8ef6 7dbc 342a 3839
00000170: e5a2 0abc 7110 c7b6 7dbc 713b 1928 b6ba
00000180: 0da8 12bb c328 f639 9e80 25b9 e400 64bb
00000190: e5ed fd37 b5c6 02ba d9cc 59bc 33a8 86b9
000001a0: 219a 40b8 50fc df3b 7df8 50ac 954e d23b
000001b0: c9c7 5b39 5283 8ebc 1172 203b ece9 733b
000001c0: 291f 133b 1fc1 753b 8499 483b 484c 5aba
000001d0: bd29 8cae 2d21 e839 c00d 9a3b 435d cd3c
000001e0: 1eb1 953b 66f1 dfb7 9006 933b 27df e935
000001f0: ec89 ceb9 128b afb4 d5bd b83c 5e5b b1b0
00000200: 8c99 0abc c677 0ebe 3827 25bc 48c7 49bd
00000210: 90c6 b53d e8be 2abd 2036 3a3d 56d3 d53d
00000220: b07a 163d 6bbf 8e35 03dd 3c3d f6e2 d63d
00000230: 93b5 7835 6c9d b63c 5327 bd3c 46ab 333c
00000240: 1d1d 6b3d ca93 203e 9cdd fd3d 9219 fb3d
00000250: f0bf 6abc e1af f93d 7c9e e5bd a008 313b
00000260: f6d4 7dbc 23e0 a8bd baa0 073e 2236 aabd
00000270: 09ab 31bd fd88 69bd a150 34bd 0c28 33bb
00000280: 9851 19be ebb3 073e b9fe d63d fc2f 23bd
00000290: 2531 db3d 4999 b83d 624f cf3d b3a5 883d
000002a0: 24aa 7fb3 c0ba 15be 18cc 2b3d 6e16 d9bb
000002b0: 884f 92b9 996a 043e 1f6f 00be 00aa e03d
000002c0: c643 b73c cf46 413d 5ca2 d73b 672b 1cbe
000002d0: cb96 503c 8604 113e c30a 0d3c 8e38 eabb
000002e0: 3784 c93d 4871 d7bc 690e be3d f3c3 b13b
000002f0: 669b 993a fda9 bcbc 3341 d13c 1741 53bd
00000300: 8eb3 61bc 5975 fd3c 2c53 c03d ffc4 523d
00000310: 1e5e 553d 1004 173e 892e f1bd 2566 6f31
00000320: cd4e 213c f71a 37bd 9867 803d 9b34 8f3d
00000330: 9499 5b34 7156 bcaf a3cd d2bc 5931 efbc
00000340: e29c a9bd 2c9d f8bd 4c94 b43d e319 ac3d
00000350: f339 c4bc e175 cfbc 0db5 15be db31 d03d
00000360: 8428 473d f5b1 2fbc d727 52bd a243 313d
00000370: 079a ba3d fdbb c2bc f967 bbbd 6363 b9bd
00000380: 8fef b4bd de48 a93c 6043 513d e5a1 51bd
00000390: aa14 09be 476f b030 1f81 f33c 9d0a c9bc
000003a0: a73f 12be 2776 0e3e 88c5 f0b5 f319 0cbe
000003b0: 3b70 5d3d fd8c 1a3c 5356 053e 0489 a63d
000003c0: cbc6 9e3d 8f52 09be 45a9 84bd db22 0b3e
000003d0: fafa e1ae 26ec db3d 09d1 d83d cd4f 8e3c
000003e0: 0b52 8cbc 779b cc3d 5d44 e73d 7fd9 cc3b
000003f0: 756a 37bd f8c3 84bc c915 6fbd d03e 6736
-3.1248314e-07 -1.3775591e-06 -0.0013347145 -1.314468e-05 0.016150665 0.00016284754 -0.03921815 -0.00018320957
0.0005068697 -0.0004469048 2.6073576e-06 0.04895644 1.9336912e-11 0.045621093 0.003185342 0.003753925
0.009083236 2.146699e-06 -0.02544207 0.00027552637 -5.9692145e-05 -0.038222767 -0.054391075 0.006316216
0.00028998635 0.005857197 0.00010996309 0.0048827436 -0.00051902194 4.911666e-05 0.0009220638 2.8351592e-06
0.0047077364 0.028082578 -1.2012987e-05 -6.6347566e-06 0.016832747 -0.018892886 5.394617e-05 0.07879344
1.413829e-10 0.02046436 0.0021817666 0.023441296 9.723789e-05 -0.028761322 -3.9583283e-05 -7.199531e-05
0.044227775 -8.676152e-05 0.0006379709 0.003076414 0.029526781 0.0299153 -0.00066554366 -0.0003024977
-0.05206924 -0.00035229255 -0.00044679816 1.8419644e-06 3.867728e-05 0.00016758147 0.03542682 0.026110865
-1.2296366e-05 0.004796789 0.0044289306 0.00032671585 -0.007413221 0.005443119 -0.053136144 -6.8607245e-05
-8.646503e-08 0.0011674596 -0.00016368016 2.0060908e-09 2.4150662e-10 0.000110301815 0.00041630308 -0.00023685268
-0.02222472 0.001633297 6.907951e-05 -0.0060547823 -0.006133839 -0.00015276093 0.023662155 -0.00032107095
-7.477485e-05 0.00015262785 -0.015500678 0.0001756333 -0.008461689 -5.932576e-06 0.003688603 -0.0013897448
-0.0022377998 0.00046951146 -0.0001578354 -0.003479057 3.0270729e-05 -0.0004988716 -0.013293468 -0.0002568379
-4.591991e-05 0.006835498 -2.9696517e-12 0.006418059 0.00020959893 -0.017396603 0.0024482051 0.0037218286
0.0022448993 0.0037499142 0.003060908 -0.0008327407 -6.373877e-11 0.00044275206 0.004701346 0.025068885
0.004568233 -2.6696081e-05 0.0044868663 1.7424799e-06 -0.00039394142 -3.2697477e-07 0.022551456 -1.2904413e-09
-0.00845946 -0.13912877 -0.010080151 -0.049262315 0.088757634 -0.04168597 0.045461774 0.104407
0.036738098 1.0635534e-06 0.04610921 0.10492508 9.2651425e-07 0.022291861 0.02309004 0.010966128
0.05740081 0.15681377 0.12395784 0.122607365 -0.014327988 0.12191749 -0.11211869 0.0027013198
-0.015492668 -0.08245876 0.13244906 -0.08311106 -0.043376002 -0.057015408 -0.044022206 -0.0027337102
-0.14972532 0.13252227 0.10497803 -0.039840683 0.10702733 0.09013612 0.10122563 0.066722296
-5.9526556e-08 -0.1462202 0.041942686 -0.0066249883 -0.00027906545 0.12931289 -0.1254239 0.10969925
0.022371184 0.04718667 0.006580634 -0.15250932 0.012731264 0.14161882 0.008608523 -0.007147855
0.09839671 -0.026299134 0.09280092 0.0054249703 0.0011719286 -0.023030275 0.025543785 -0.051575746
-0.013775719 0.030939745 0.09390864 0.0514574 0.05209171 0.14747643 -0.11776454 3.483714e-09
0.009845448 -0.04470345 0.06269759 0.069924556 2.0451836e-07 -3.425842e-10 -0.02573282 -0.029198335
-0.08281876 -0.12139353 0.08817348 0.08403375 -0.023953414 -0.025324764 -0.14619847 0.10165759
0.048622623 -0.010723581 -0.051307525 0.04327739 0.0911141 -0.02377128 -0.091506906 -0.0905216
-0.08834755 0.020664629 0.051089644 -0.051179785 -0.13386789 1.2837312e-09 0.029724656 -0.024541194
-0.14282094 0.13912259 -1.7938883e-06 -0.13681774 0.05406211 0.009433028 0.13021211 0.081316024
0.077527605 -0.134104 -0.06477598 0.13587515 -1.0276398e-10 0.10738401 0.10586745 0.017372036
-0.017128965 0.0999059 0.11292336 0.0062515135 -0.04477926 -0.016206726 -0.058370385 3.4458244e-06

pool2.att f4 [1, 256]
00000000: 3f83 a8b0 e690 183c 8345 ed32 6236 e0ba
00000010: 4b36 1e3c 3f99 4f2e b9e9 0fbd b8b8 0f3c
00000020: 239a b130 ba37 a2b8 a3f1 bfb8 bf94 89bb
00000030: c46c fe38 76f7 3b2e ce30 81bd b16c 28b9
00000040: 02a1 183a 35d6 8636 76b5 3f3c 59db 56ad
00000050: 1c98 6f3d e0c1 8dae 36a1 b8bb 6d27 f4b3
00000060: d9e5 7735 9309 25b4 bee4 3bbc 6483 3637
00000070: 7114 c936 625c 823d 0cf5 5dbc 59f2 9b3d
00000080: 47f3 2835 5c4c 67b3 d33d 2139 1ff3 9c3c
00000090: 91c9 4b38 b7db d43c 6e0a 9ab7 7c72 3fbd
000000a0: 9758 98b9 e017 b3bc 204b 0231 0208 cfb9
000000b0: a634 b532 18cd 8e34 0821 6a3b 6cb1 9dbb
000000c0: 2518 6ab1 2303 f8b3 3d09 2aae 000d a7bc
000000d0: 70aa 962e 44fa 323b 2942 0a38 4899 f337
000000e0: b874 3d38 0759 713c 3dc7 aebb 592c 843d
000000f0: f35e 1739 3557 a5b7 f066 ae36 d028 213c
00000100: de3d 8c3b 4ca7 b63b 9b6c 9ab5 c37a 5f30
00000110: ba5b 1cbd 74e0 dcb4 8c8f 45ad ad20 bf3c
00000120: 5e8d 1534 cd48 0f3a e1d5 05b1 6d78 8eae
00000130: 2182 ed3a 677f 4bb5 59c4 4dbd 0ce7 32b9
00000140: 05e6 8bb2 5d6d 2333 5d5c 3fba da1e 14b4
00000150: 55c5 5d3c 3fac 09b8 bd82 983b 4b1e 0eb5
00000160: b59d a63b d979 bab2 b7b4 9cad b315 15b7
00000170: a81f 30bd d48e 2a32 407a 5bbb 44ec 112f
00000180: d049 1e34 d7ae 023c 1af4 54b3 1f1e 813c
00000190: ad71 89b1 1f43 5235 84f1 bfbd 7ed1 3835
000001a0: 7c86 2734 b0a5 5f3d da79 c83b 930d bf39
000001b0: 4c9b 3137 1a26 983b fa12 cf2f 980b f03c
000001c0: b4af f6ac e2f9 4a3d 10d3 c930 5d6e 2732
000001d0: e24d 9d36 cc48 8e3c f784 2732 43f0 0f2f
000001e0: f382 63bc 3033 983b e364 0334 397e 653d
000001f0: 19f8 cebc 719a 03bc f4a3 33bd f3d3 cdbc
00000200: 362d 3abd c384 473d 4cd6 d6bc bc9f f23d
00000210: 215f c8bc 1cca 02b3 7f49 253e b722 8dbc
00000220: 6957 30ad 42d9 50bb f5c1 c4bd ecfb 38bd
00000230: 74e5 e3bc d82a 602d 9b6b 70bd 64fe 1f34
00000240: 139d 0a2f 413f 98bb 7e62 61bc ffb7 ea39
00000250: 5f8c 8d3d e3f5 bbba 4d7f 733d e827 9337
00000260: 3813 3bbd 016b 2dbb 8433 ae3d 534c 8a3a
00000270: 3d11 e6bd 64c8 c33d 1e83 bdbd 2d82 c6bc
00000280: c3d3 32bc 3869 323c 5c08 f43d 8a79 263e
00000290: ba99 6ab1 79e2 0c3d 8701 a3b9 e865 98bd
000002a0: 1e99 1a3e 5e00 4f3e 1f92 083b a725 bf3d
000002b0: 4993 02bd 3588 573b 533f 263e 386a aebd
000002c0: d668 9133 c4e6 19af 0c0a 9b32 2c4d 16bd
000002d0: a4c1 29bd a3e0 c5bd 0b40 3b3d 1d09 3739
000002e0: ccde a839 36a5 123e 81f6 afbd 7ca7 2b3e
000002f0: 8de9 39bd 9419 063d 3534 bfae 6781 23bd
00000300: 6116 1c3e 5eea b33d 6090 df3d 76c9 9b39
00000310: c36d 4fbc ea2d 62b7 bb4e 9bb3 f347 d23b
00000320: 11b4 acbd 8992 0dbc 5f1b 4bbb bbc1 da3c
00000330: 57eb 85bd 69fb 623d 3a66 793d 760d 01bd
00000340: f5fc 1d38 98d6 653d 8af6 91bd 8d6f 6abd
00000350: 06c3 de3d 0d27 f53d afc8 fdbc 29ad 283c
00000360: 5af3 0f3e 92f8 c1bd 79a4 0d3c fe57 523c
00000370: 0c10 493c 2953 b8b9 a4c5 583d dbc6 113b
00000380: a1cf 993d 3aa0 56bd 7966 543d c7e6 8cbd
00000390: 0148 90bb f614 d9bd eab4 93bd 917d 8bbd
000003a0: 0cff f33d a2e3 493e 2707 a23d d23a 573d
000003b0: b7c9 003e 3d93 c93d be6a cc28 3693 a93d
000003c0: d03b 1ab0 f15c 2f3e 39b9 e4bb f77f 91ba
000003d0: 4498 2c3e c883 82bd 62e8 c5ba 4222 4333
000003e0: 1303 2e3d ec9a 283e a3d2 f73b ba85 4e3c
000003f0: 1f74 0b3d 7a8d 1f3e 8c6f 7dbd f5ea 4f3e
-1.2260911e-09 0.00931189 2.7622042e-08 -0.0017106051 0.009656499 4.720246e-11 -0.035135005 0.008772068
1.2922253e-09 -7.735142e-05 -9.152598e-05 -0.00419864 0.00012131923 4.2738667e-11 -0.06308137 -0.00016062219
0.0005822332 4.018448e-06 0.0117009785 -1.2213197e-11 0.058494672 -6.446377e-11 -0.005634452 -1.1369307e-07
9.234914e-07 -1.5370306e-07 -0.011468111 1.0878637e-05 5.9926465e-06 0.06365277 -0.013547193 0.076145835
6.293889e-07 -5.3853327e-08 0.00015377188 0.019158898 4.8586695e-05 0.025983674 -1.8363087e-05 -0.04674004
-0.00029057704 -0.02186197 1.8960193e-09 -0.00039488083 2.1095115e-08 2.6598786e-07 0.0035725255 -0.00481241
-3.4065206e-09 -1.15489705e-07 -3.866173e-11 -0.020391941 6.851486e-11 0.0027309814 3.296338e-05 2.9039235e-05
4.5169814e-05 0.014730698 -0.0053338096 0.06453771 0.00014435854 -1.9710142e-05 5.1975876e-06 0.009836391
0.004279836 0.0055741426 -1.1505502e-06 8.130138e-10 -0.038173415 -4.1141504e-07 -1.1230027e-11 0.02333101
1.3928135e-07 0.0005465865 -1.9475623e-09 -6.478804e-11 0.0018120446 -7.580879e-07 -0.05023608 -0.00017061475
-1.628633e-08 3.805086e-08 -0.0007299835 -1.3794798e-07 0.013535817 -3.2823762e-05 0.004654257 -5.2943204e-07
0.005084718 -2.170866e-08 -1.78154e-11 -8.886144e-06 -0.04299894 9.927778e-09 -0.0033489615 1.3271612e-10
1.474175e-07 0.007976255 -4.9582106e-08 0.015761433 -4.000148e-09 7.832877e-07 -0.09372237 6.885019e-07
1.5602012e-07 0.05460137 0.0061180415 0.00036440472 1.058618e-05 0.004643214 3.7666564e-10 0.029302403
-7.0112475e-12 0.049554713 1.4684662e-09 9.745773e-09 4.6880314e-06 0.017368697 9.750912e-09 1.3091132e-10
-0.013886201 0.004644774 1.2237028e-07 0.05602858 -0.025264787 -0.008032427 -0.04385753 -0.02512548
-0.045453273 0.048710596 -0.026225232 0.11846873 -0.024459423 -3.04518e-08 0.16141318 -0.017228467
-1.0023851e-11 -0.0031867777 -0.09607307 -0.045162126 -0.027819373 1.2742439e-11 -0.05869637 1.4900576e-07
1.2606831e-10 -0.0046462123 -0.0137563925 0.00044769046 0.06911539 -0.0014340248 0.059447575 1.7542348e-05
-0.045672625 -0.0026461484 0.085059196 0.0010551311 -0.11233757 0.09559706 -0.09253524 -0.024231995
-0.010914746 0.010889344 0.11915657 0.16257301 -3.4138865e-09 0.03439567 -0.0003109092 -0.07441312
0.15097472 0.20214984 0.0020839048 0.093333535 -0.031878743 0.0032887582 0.16235094 -0.08516353
6.771158e-08 -1.3997253e-10 1.8048944e-08 -0.03669469 -0.041444436 -0.09661987 0.045715373 0.00017455635
0.00032209454 0.14320835 -0.08591939 0.16763109 -0.045388747 0.032739237 -8.694948e-11 -0.03991833
0.15242912 0.08784936 0.10916209 0.00029714004 -0.012660447 -1.348134e-05 -7.232071e-08 0.0064172684
-0.084327824 -0.008640894 -0.0030991656 0.026703706 -0.06539028 0.055415545 0.060888506 -0.031506978
3.76673e-05 0.056112856 -0.07127102 -0.05723529 0.108770415 0.11970339 -0.030979482 0.010295191
0.14057675 -0.09471239 0.00864517 0.012838362 0.012271892 -0.00035157174 0.05292286 0.0022243771
0.07510305 -0.052398898 0.051855538 -0.06879955 -0.004403115 -0.10599701 -0.07212241 -0.06811059
0.11913881 0.19715741 0.079115205 0.05254633 0.12576948 0.098425366 2.2694842e-14 0.082800314
-5.610987e-10 0.17125298 -0.006980088 -0.0011100759 0.1685496 -0.063727915 -0.0015099163 4.5433133e-08
0.0424834 0.16465348 0.0075629517 0.012605125 0.03404629 0.15581313 -0.061873958 0.20304473

lin1.weight f4 [128, 256]
00000000: 2c0f 2cbb 13b8 a43d eb63 02bb f69a 04be
00000010: af84 65bd 072b 4bbc 5fbc 9b3c 582d 93bd
00000020: 0a5f d13c e7a3 bebb 5f04 73bc 214c 723c
00000030: 1798 28bd d4cc 65bd bb76 e63c 3ca5 88bd
00000040: b0ed 953c 2079 603c a76e 923d 1b71 84bc
00000050: dd19 ff3c 972b 83bd 8a11 7a3c c4d5 e93c
00000060: 20b8 f63d 2dde be3c cd2e 3ebd c399 6d3c
00000070: 7633 ab3c 77d3 643d c316 83bc a596 72bd
00000080: 4d25 983d fd9d a0bd cc1d 07be dee0 07bb
00000090: 4123 6b3c 5565 643c 7944 9abd 415e 403b
000000a0: cc07 20bd a4da 503a 4247 00bc 3b9d 76bb
000000b0: bc97 353d a12c 99bd caf5 ecbc c81f 763d
000000c0: aca1 3dbb 436d acbd cb4a bb3d 55b4 5cbd
000000d0: 13a4 b5bc 5d0b 2fbd 5c1a 623d 02b3 24bd
000000e0: 54b0 953d 7c93 d83c eed1 043d 6065 0f3d
000000f0: f00f 353d a16d ddbc e301 353d 3262 3e3d
00000100: 8023 06be 845b 09bd fa82 a13c 03ca 7f3b
00000110: 894c 3dbc 2849 1ebd 7e43 5b3e d3ff 66bd
00000120: fb63 a03d 4b73 d23c 11ed 093d 4d96 6e3c
00000130: 59a6 5ebd 149a cd3d c626 bd3c d803 f9bc
00000140: c42d 09bd a043 093d 0c7f 37bd 0574 403d
00000150: 72a0 a1bb 8211 363d 7d94 303d 1e3d f9bb
00000160: f55d 943c 59cb 593c a487 d8bc b245 30bd
00000170: b31b 133d f4f8 61bd 5ded 59bc bd05 7cbd
00000180: eec0 56bb cd46 9c3b 8d11 86bd 5cc2 8b3c
00000190: 55af 703b 5cbe 1f3e 1b8a a9bc c887 26bc
000001a0: ae4d 9f3d d55b 753c 8f57 b33d 6cab 0a3d
000001b0: 5948 85bd 2168 353d 42dd a3bd 4236 58bd
000001c0: 0001 123e 4251 c0bb 5f50 f43d 137d f6bb
000001d0: 39e6 853d 1e4b 603d ad6c 6e3d 1443 4bbd
000001e0: a4d2 4cbd e94e 9ebc ca01 a13c 39ea a23c
000001f0: af4b fbba d9b0 d0bc 1a40 2d3d d849 81bd
00000200: 50f4 7fbb d76e bdbc a052 39bc b303 5abe
00000210: cdb5 a93a 5b0c 013d fd03 00bd c4f4 77bd
00000220: 0cea 59bd b503 133d c298 893d b4c2 29bc
00000230: 2af1 babc 6d66 17bc f823 48bd 4a92 2b3c
00000240: 2a91 da3c f077 ffba edca 5bbc e647 d33c
00000250: cfb7 5ebc b516 8e3c df6d 70bd 0f43 86bd
00000260: eb1e ac3c 3cdd 6a3c e6f9 39bd 72a9 9a3c
00000270: 7767 74bd 5f5e 72bd eac8 2cbd aa86 e6bc
00000280: 85e1 a33c 285c 203d 4536 40bd dce8 fe3c
00000290: 736f 103c 255d 5bbc 9495 1dbd df5a 763d
000002a0: 194d 2fbb 77cb 273c fb4a dfba f871 87bc
000002b0: 1d56 5bbd 9a7f 7fbd 3b63 19bb eab4 bc3c
000002c0: ce21 91bd 1762 78bd 7f37 373c 0178 37bd
000002d0: 7a8d 87bd c517 673b 0e68 56bb c4cd 61bd
000002e0: 02f2 12bc 88d1 58bd cf25 5abd 459a 3b3d
000002f0: 6a98 6d3c fcce 5d3c d544 733d 2954 a3bc
00000300: 7ad9 c9bd e8a4 86bd 960c 123d ac5e 613d
00000310: 4228 87bc 2a0d 293d 4b1c 563d 338e 3a3d
00000320: 6e1b aebb 623b 653c afd7 65bd 5878 d43c
00000330: 1499 f1bc d0ca 073d 1ac6 6a3c a85d bb3c
00000340: cb26 183d 8b17 3cbc fe4c adbb c5fd f73c
00000350: e53c 8e3c 9d6f 453d 8b39 3b3d ed4f 00bd
00000360: 4940 383d da7b a7ba 0f10 5fbc 6f17 873c
00000370: eaf8 5bbd ed5b 7cbd 3adc a03b ca15 d5bc
00000380: abad e3bb d9f5 63bd 5f6b e23c 5d45 b4bd
00000390: 92d9 54bd 3700 ae3c 5539 1abd c45f e6bc
000003a0: fd31 873d 4731 8dbd 6385 553d 6794 663d
000003b0: c518 293b 96b1 163d 7599 0b3c fa34 04bd
000003c0: 6d8e e83b 3e9d 07bd 2b2b 0a3d 1c7d 1abc
000003d0: fe5b c3bb 2908 1dbc 994e 46bc 5ca9 f2bc
000003e0: 71d7 9fbc 2bae ffbc 7327 f13c 6a5b 6abd
000003f0: f467 90bb 2230 c8bc b2cf 09bd 9274 043d
-0.002625416 0.08042922 -0.0019895982 -0.12949738 -0.05603474 -0.012400395 0.01901072 -0.07186383
0.025558013 -0.0058178785 -0.014832585 0.014788658 -0.04116067 -0.056103542 0.028132787 -0.06672141
0.018301815 0.013700753 0.071500115 -0.016167214 0.031140262 -0.064047985 0.015262971 0.028544314
0.12046838 0.023299301 -0.04643135 0.014501992 0.020898562 0.05586573 -0.016002065 -0.059225697
0.074289896 -0.07842634 -0.1319496 -0.0020733397 0.014351667 0.013940175 -0.075325914 0.0029353055
-0.039069936 0.00079671503 -0.007829489 -0.0037630338 0.04433416 -0.074792154 -0.028925795 0.060088903
-0.0028935475 -0.084192775 0.09145125 -0.053882916 -0.022172963 -0.042735446 0.05520092 -0.040209778
0.073090225 0.026437514 0.032426767 0.035008788 0.044204652 -0.027029814 0.044191252 0.046480365
-0.1309948 -0.03353454 0.019715775 0.003903032 -0.011553892 -0.038643986 0.21412465 -0.056396317
0.0783157 0.025689742 0.03367335 0.014562202 -0.05435786 0.10039154 0.023089778 -0.03039734
-0.03349091 0.033511758 -0.044798896 0.046985645 -0.0049324566 0.04445029 0.04311036 -0.0076061627
0.018111208 0.013293111 -0.026431866 -0.043035217 0.035915088 -0.05516906 -0.013301221 -0.06152891
-0.0032768804 0.0047691823 -0.06546316 0.017060451 0.00367256 0.1559996 -0.020695737 -0.010164209
0.07778488 0.014975508 0.08756935 0.033854887 -0.0650794 0.04428876 -0.08001186 -0.05278612
0.14258194 -0.0058690617 0.11929392 -0.007522234 0.06538052 0.054759137 0.05820911 -0.049624518
-0.05000557 -0.019324737 0.019654173 0.019887077 -0.0019172336 -0.025474953 0.04229746 -0.06312913
-0.0039055534 -0.023124142 -0.011311203 -0.21290474 0.0012947858 0.031505924 -0.031253804 -0.06053616
-0.05320172 0.035892207 0.06718589 -0.010361362 -0.022820074 -0.009240729 -0.048862427 0.01047189
0.026680548 -0.00194907 -0.0134150805 0.02579112 -0.013593628 0.017344812 -0.05869853 -0.06555759
0.021010837 0.014334973 -0.045404337 0.018879626 -0.059668984 -0.05917203 -0.042183794 -0.028140385
0.020004997 0.039150387 -0.046926755 0.031116895 0.008815634 -0.013388907 -0.038472727 0.060145255
-0.0026748835 0.010241381 -0.0017035896 -0.016533837 -0.05354892 -0.06237755 -0.0023405093 0.023035485
-0.07086526 -0.06064042 0.011182665 -0.04479218 -0.066187814 0.003526197 -0.003271583 -0.055127874
-0.008968832 -0.0529342 -0.053258713 0.04580142 0.01450167 0.013538118 0.059391815 -0.019937592
-0.098559335 -0.06574422 0.035656534 0.055021927 -0.016498689 0.04127232 0.052273076 0.045545768
-0.0053133285 0.013991209 -0.056113895 0.02593629 -0.029491939 0.0331524 0.014329458 0.022871807
0.03714637 -0.011480222 -0.005288719 0.030272374 0.017363021 0.048202146 0.045709174 -0.031326223
0.044983182 -0.0012778 -0.0136146685 0.016490666 -0.05370418 -0.061611105 0.0049090656 -0.026011366
-0.006948193 -0.05565438 0.02763909 -0.088022925 -0.051965304 0.021240337 -0.037652332 -0.028121836
0.066013314 -0.068941645 0.05212916 0.05629387 0.0025802117 0.036790453 0.008520474 -0.032277085
0.0070970566 -0.033108942 0.033732574 -0.009429242 -0.005961894 -0.009584465 -0.0121037 -0.029621772
-0.01951191 -0.03121098 0.029437756 -0.057216085 -0.0044069234 -0.024437014 -0.03364534 0.032337733
